stage_2/weights/vmf_kernels.npy (npy, 8320 bytes, 1 tensors)

array f8 [64, 16]
000000 00 00 00 a0 56 5a e9 3f 00 00 00 60 4f a5 93 3f
       0.7922776341438293 0.019185295328497887
000010 00 00 00 80 22 0b 5f 3f 00 00 00 80 50 54 d1 3f
       0.0018947445787489414 0.2707711458206177
000020 00 00 00 20 6a 09 a2 bf 00 00 00 40 f4 b1 78 3f
       -0.035228077322244644 0.006029085256159306
000030 00 00 00 60 72 22 f4 3f 00 00 00 60 fc e5 df 3f
       1.258409857749939 0.49841222167015076
000040 00 00 00 a0 68 e3 f2 3f 00 00 00 80 2a 1d 69 bf
       1.180519700050354 -0.003065665252506733
000050 00 00 00 00 55 58 b7 3f 00 00 00 60 c8 6d be 3f
       0.09119158983230591 0.11886265128850937
000060 00 00 00 e0 84 ba b2 3f 00 00 00 60 f7 cb db 3f
       0.07315855473279953 0.43432411551475525
000070 00 00 00 a0 a7 68 71 bf 00 00 00 60 e7 26 e1 3f
       -0.00425019720569253 0.5359990000724792
000080 00 00 00 00 a9 21 e5 bf 00 00 00 a0 d5 a8 94 bf
       -0.6603589057922363 -0.020175302401185036
000090 00 00 00 c0 a4 d2 cc bf 00 00 00 a0 e6 ef c5 3f
       -0.2251783311367035 0.17138369381427765
0000a0 00 00 00 00 8a 75 e5 bf 00 00 00 40 6e 91 c1 3f
       -0.670598030090332 0.13725069165229797
0000b0 00 00 00 00 c1 ba e6 bf 00 00 00 00 b3 ae e0 bf
       -0.7102971076965332 -0.5213255882263184
0000c0 00 00 00 e0 8b d0 bc bf 00 00 00 20 26 b7 d4 bf
       -0.11255716532468796 -0.32367852330207825
0000d0 00 00 00 60 5e ec e4 bf 00 00 00 e0 72 3f c0 3f
       -0.6538535952568054 0.12693630158901215
0000e0 00 00 00 40 7a 56 e0 3f 00 00 00 00 2f c1 cf bf
       0.5105563402175903 -0.2480829954147339
0000f0 00 00 00 e0 27 34 e8 bf 00 00 00 e0 75 41 de bf
       -0.7563666701316833 -0.4727453887462616
000100 00 00 00 60 22 37 c9 bf 00 00 00 e0 85 a4 d8 bf
       -0.1969950646162033 -0.3850416839122772
000110 00 00 00 80 33 b8 c4 3f 00 00 00 c0 45 30 e4 bf
       0.16187137365341187 -0.6308926343917847
000120 00 00 00 e0 14 3a bf 3f 00 00 00 20 c8 35 ae bf
       0.12198000401258469 -0.05900407209992409
000130 00 00 00 60 bd cf e3 bf 00 00 00 20 20 ed e0 bf
       -0.6191088557243347 -0.5289459824562073
000140 00 00 00 20 b7 53 df bf 00 00 00 c0 c5 e2 da bf
       -0.489484578371048 -0.42009109258651733
000150 00 00 00 20 a1 81 e2 bf 00 00 00 20 02 9d e0 bf
       -0.5783239006996155 -0.5191660523414612
000160 00 00 00 20 b1 ff dc bf 00 00 00 00 c5 ae dc bf
       -0.45310619473457336 -0.448167085647583
000170 00 00 00 40 3f 28 d4 3f 00 00 00 00 08 1e e0 bf
       0.3149564862251282 -0.5036659240722656
000180 00 00 00 a0 a0 6f c3 3f 00 00 00 e0 d6 86 47 3f
       0.1518440991640091 0.0007179784006439149
000190 00 00 00 80 96 80 7b 3f 00 00 00 20 ce d7 c7 3f
       0.0067144278436899185 0.18627335131168365
0001a0 00 00 00 e0 2b e4 4f bf 00 00 00 c0 43 f0 31 bf
       -0.0009732450707815588 -0.0002737203030847013
0001b0 00 00 00 00 57 ef ef 3f 00 00 00 40 bc 17 78 3f
       0.9979662895202637 0.005882010795176029
0001c0 00 00 00 60 12 0c ec 3f 00 00 00 40 8d 4b 51 3f
       0.876473605632782 0.0010556105989962816
0001d0 00 00 00 80 02 2d 92 3f 00 00 00 20 de fb 57 3f
       0.01774982362985611 0.0014638585271313787
0001e0 00 00 00 40 10 dd 5d 3f 00 00 00 00 42 22 a8 3f
       0.0018227251712232828 0.04713636636734009
0001f0 00 00 00 a0 13 a1 55 3f 00 00 00 c0 a2 cb e9 3f
       0.0013201419496908784 0.8061078786849976
000200 00 00 00 40 e8 92 ee 3f 00 00 00 00 1e 2b c6 bf
       0.9554330110549927 -0.17319083213806152
000210 00 00 00 a0 2c 2c cb bf 00 00 00 60 46 ce d9 3f
       -0.2122855931520462 0.4032150208950043
000220 00 00 00 c0 2a 65 d8 bf 00 00 00 40 10 7a ee 3f
       -0.3811747431755066 0.9524003267288208
000230 00 00 00 60 91 1d d9 3f 00 00 00 c0 27 d5 ca bf
       0.3924296796321869 -0.20962998270988464
000240 00 00 00 a0 82 cb e1 3f 00 00 00 00 3c d1 d9 3f
       0.5560925602912903 0.4033956527709961
000250 00 00 00 c0 5c 4b c7 3f 00 00 00 a0 66 e3 ea 3f
       0.18198737502098083 0.8402588963508606
000260 00 00 00 20 54 09 e6 3f 00 00 00 60 43 4f f1 3f
       0.6886387467384338 1.0818513631820679
000270 00 00 00 20 40 b5 f0 3f 00 00 00 00 8a 17 d0 bf
       1.0442506074905396 -0.251436710357666
000280 00 00 00 e0 ad 01 bc 3f 00 00 00 20 60 d2 e0 3f
       0.10940062254667282 0.5256806015968323
000290 00 00 00 60 d8 cb df bf 00 00 00 40 77 ea d2 3f
       -0.4968167245388031 0.29556065797805786
0002a0 00 00 00 80 05 c4 eb 3f 00 00 00 60 d6 8e eb bf
       0.8676784038543701 -0.8611862063407898
0002b0 00 00 00 40 05 4b c1 3f 00 00 00 60 7f e8 e7 3f
       0.13510194420814514 0.7471310496330261
0002c0 00 00 00 c0 b0 6d e9 3f 00 00 00 a0 09 0e d1 3f
       0.7946399450302124 0.26648178696632385
0002d0 00 00 00 20 b5 ae ed 3f 00 00 00 e0 9e 61 c9 bf
       0.9275766015052795 -0.19829164445400238
0002e0 00 00 00 60 f1 9e db 3f 00 00 00 60 4b d1 da 3f
       0.43157610297203064 0.4190243184566498
0002f0 00 00 00 a0 37 1e de 3f 00 00 00 c0 dd 96 e0 3f
       0.4705943167209625 0.5184162855148315
000300 00 00 00 60 bb b1 d3 3f 00 00 00 00 e3 c9 64 bf
       0.30772289633750916 -0.0025376733392477036
000310 00 00 00 20 19 19 b4 3f 00 00 00 e0 35 09 e3 3f
       0.07850796729326248 0.5948743224143982
000320 00 00 00 e0 f0 dd 58 3f 00 00 00 60 b8 25 3e bf
       0.0015177585883066058 -0.00046001197188161314
000330 00 00 00 a0 ef 3b f0 3f 00 00 00 e0 c6 3c a1 3f
       1.0146328210830688 0.03366681560873985
000340 00 00 00 60 59 63 f5 3f 00 00 00 c0 86 a8 77 3f
       1.3367551565170288 0.005775953643023968
000350 00 00 00 40 02 5c 42 bf 00 00 00 c0 40 c5 77 bf
       -0.0005602847086265683 -0.005803349427878857
000360 00 00 00 e0 e6 b6 75 bf 00 00 00 60 88 a6 c0 3f
       -0.005301381926983595 0.1300821751356125
000370 00 00 00 20 9c bc 63 3f 00 00 00 40 61 b6 f4 3f
       0.002409272128716111 1.2945263385772705
000380 00 00 00 00 25 06 e2 3f 00 00 00 80 1a c8 52 3f
       0.5632500648498535 0.0011463412083685398
000390 00 00 00 40 58 26 51 bf 00 00 00 60 b0 01 db 3f
       -0.0010467397514730692 0.42197808623313904
0003a0 00 00 00 e0 20 e0 4e bf 00 00 00 00 f1 87 1d 3f
       -0.0009422455332241952 0.00011265190551057458
0003b0 00 00 00 c0 85 6b f3 3f 00 00 00 a0 e8 74 a7 3f
       1.2137506008148193 0.04581381753087044
0003c0 00 00 00 e0 2a 26 f8 3f 00 00 00 80 0e b2 64 3f
       1.509318232536316 0.00252631027251482
0003d0 00 00 00 a0 d0 64 63 3f 00 00 00 a0 c4 a7 4e 3f
       0.002367408247664571 0.0009355268557555974
0003e0 00 00 00 e0 ae 0c 56 3f 00 00 00 60 8b a1 cd 3f
       0.0013457973254844546 0.23149244487285614
0003f0 00 00 00 a0 0c e2 30 3f 00 00 00 00 09 ef ef 3f
       0.0002576142142061144 0.9979290962219238
000400 00 00 00 40 21 14 ef 3f 00 00 00 e0 34 d6 dc 3f
       0.9712072610855103 0.45057412981987
000410 00 00 00 60 d9 ed e0 3f 00 00 00 a0 36 02 e5 3f
       0.5290343165397644 0.6565201878547668
000420 00 00 00 a0 18 f6 e7 3f 00 00 00 80 1a 2a c5 3f
       0.7487910389900208 0.1653473973274231
000430 00 00 00 c0 29 f0 e9 3f 00 00 00 40 fa 77 ef 3f
       0.810566782951355 0.9833956956863403
000440 00 00 00 60 d9 a7 d0 3f 00 00 00 80 77 9d ec 3f
       0.2602446973323822 0.8942220211029053
000450 00 00 00 00 ab 35 e9 3f 00 00 00 60 d6 d4 d9 3f
       0.7878012657165527 0.4036155641078949
000460 00 00 00 c0 92 3b d5 3f 00 00 00 80 bb b0 d0 3f
       0.33176106214523315 0.26078689098358154
000470 00 00 00 60 bd 56 da 3f 00 00 00 00 d8 17 a7 3f
       0.41154417395591736 0.04510378837585449
000480 00 00 00 20 b2 72 68 3f 00 00 00 40 b2 02 34 bf
       0.002984378719702363 -0.0003053364926017821
000490 00 00 00 80 95 67 c8 3f 00 00 00 60 7a 7f d1 3f
       0.19066113233566284 0.27340564131736755
0004a0 00 00 00 c0 6f de 2a bf 00 00 00 c0 01 8d 2c bf
       -0.00020499338279478252 -0.00021782537805847824
0004b0 00 00 00 60 77 82 f0 3f 00 00 00 40 83 91 45 3f
       1.031852126121521 0.0006582156056538224
0004c0 00 00 00 00 57 45 e1 3f 00 00 00 c0 2a fd 5d 3f
       0.5397143363952637 0.0018303792458027601
0004d0 00 00 00 e0 87 c2 8e 3f 00 00 00 00 6d a0 32 3f
       0.015019475482404232 0.00028422032482922077
0004e0 00 00 00 e0 84 7e 64 3f 00 00 00 40 c7 c4 54 3f
       0.002501735230907798 0.0012676187325268984
0004f0 00 00 00 60 10 58 8b 3f 00 00 00 20 04 eb ef 3f
       0.013351562432944775 0.9974384903907776
000500 00 00 00 c0 b7 0d e1 bf 00 00 00 a0 20 5a c2 bf
       -0.5329245328903198 -0.1433754712343216
000510 00 00 00 80 c3 73 a2 3f 00 00 00 a0 93 17 e1 bf
       0.036039456725120544 -0.5341280102729797
000520 00 00 00 80 95 33 d7 bf 00 00 00 60 85 72 d5 bf
       -0.3625234365463257 -0.33511480689048767
000530 00 00 00 20 a0 2e e8 bf 00 00 00 60 f4 92 d7 bf
       -0.7556915879249573 -0.36834439635276794
000540 00 00 00 e0 68 6d e2 bf 00 00 00 a0 91 cb d6 bf
       -0.5758556723594666 -0.35617485642433167
000550 00 00 00 40 d4 ad d2 bf 00 00 00 c0 c0 89 a6 bf
       -0.2918596863746643 -0.04401972144842148
000560 00 00 00 00 70 a3 cc bf 00 00 00 00 60 34 db bf
       -0.2237377166748047 -0.42507171630859375
000570 00 00 00 c0 99 ab d0 bf 00 00 00 20 a5 00 cc bf
       -0.26047366857528687 -0.21876968443393707
000580 00 00 00 20 f1 d4 e0 bf 00 00 00 e0 d0 51 c0 3f
       -0.5259938836097717 0.12749682366847992
000590 00 00 00 80 c7 f2 ce bf 00 00 00 40 ad a3 e3 bf
       -0.24178403615951538 -0.6137300729751587
0005a0 00 00 00 c0 77 66 d6 bf 00 00 00 40 32 c3 ce 3f
       -0.3500041365623474 0.24033191800117493
0005b0 00 00 00 e0 d2 19 e6 bf 00 00 00 20 47 32 da bf
       -0.6906523108482361 -0.4093187153339386
0005c0 00 00 00 40 e7 f6 e5 bf 00 00 00 a0 9c 26 c0 bf
       -0.6863895654678345 -0.1261783391237259
0005d0 00 00 00 e0 18 f3 db bf 00 00 00 20 8e 0a de bf
       -0.43671247363090515 -0.4693942368030548
0005e0 00 00 00 20 db e9 d5 bf 00 00 00 60 89 e0 e0 bf
       -0.34239843487739563 -0.5274092555046082
0005f0 00 00 00 80 d3 2b b7 bf 00 00 00 40 96 cf d0 bf
       -0.0905124843120575 -0.26267009973526
000600 00 00 00 60 eb 97 b6 3f 00 00 00 20 f6 51 d3 bf
       0.08825560659170151 -0.30187752842903137
000610 00 00 00 80 5f 1c e6 3f 00 00 00 60 07 28 ea 3f
       0.6909635066986084 0.8173863291740417
000620 00 00 00 00 b5 a8 dd bf 00 00 00 a0 d1 ca f3 3f
       -0.4634220600128174 1.2370163202285767
000630 00 00 00 a0 9f f9 bc 3f 00 00 00 60 0c 47 e2 3f
       0.11318395286798477 0.5711728930473328
000640 00 00 00 00 b4 53 d8 bf 00 00 00 80 44 6c e2 bf
       -0.3801088333129883 -0.5757162570953369
000650 00 00 00 e0 a4 7c e1 3f 00 00 00 00 e7 0a c7 bf
       0.5464653372764587 -0.18002021312713623
000660 00 00 00 c0 1a 0b f4 3f 00 00 00 00 31 a9 e2 bf
       1.2527110576629639 -0.583153247833252
000670 00 00 00 60 d9 e7 d7 3f 00 00 00 60 c2 81 e0 3f
       0.3735259473323822 0.5158397555351257
000680 00 00 00 40 5e 9f e7 3f 00 00 00 e0 b7 74 ca bf
       0.7382041215896606 -0.20668695867061615
000690 00 00 00 a0 89 53 c2 3f 00 00 00 60 79 4d ec 3f
       0.14317436516284943 0.8844572901725769
0006a0 00 00 00 00 50 e4 ed 3f 00 00 00 c0 72 62 f0 3f
       0.9341201782226562 1.0240352153778076
0006b0 00 00 00 60 cb 87 ea 3f 00 00 00 60 d6 8a e1 bf
       0.8290764689445496 -0.5481979250907898
0006c0 00 00 00 00 6f 9f d7 3f 00 00 00 e0 9e 64 f0 3f
       0.3691060543060303 1.024565577507019
0006d0 00 00 00 20 e5 e3 e9 3f 00 00 00 e0 16 47 e8 3f
       0.8090692162513733 0.7586778998374939
0006e0 00 00 00 20 f6 cd b6 3f 00 00 00 a0 55 d6 ec 3f
       0.08908022195100784 0.9011638760566711
0006f0 00 00 00 e0 47 65 e3 3f 00 00 00 00 a1 c2 ed bf
       0.6061133742332458 -0.9300084114074707
000700 00 00 00 80 4c ef dc bf 00 00 00 20 3f f9 ce 3f
       -0.45210564136505127 0.2419814020395279
000710 00 00 00 80 f6 e6 cd bf 00 00 00 a0 6b 02 e6 bf
       -0.23361092805862427 -0.6877954602241516
000720 00 00 00 80 39 62 dc bf 00 00 00 80 f7 1e da bf
       -0.44349515438079834 -0.40814006328582764
000730 00 00 00 40 ba f5 e2 bf 00 00 00 00 ca a2 c0 3f
       -0.5924960374832153 0.12996792793273926
000740 00 00 00 00 c3 fe e7 bf 00 00 00 a0 01 a9 d3 bf
       -0.7498488426208496 -0.30719032883644104
000750 00 00 00 a0 59 85 da bf 00 00 00 20 c3 b1 d7 bf
       -0.414389044046402 -0.3702247440814972
000760 00 00 00 c0 6a 7a d5 bf 00 00 00 60 45 16 d6 bf
       -0.3355967402458191 -0.34510931372642517
000770 00 00 00 20 36 f8 c2 bf 00 00 00 20 e9 02 df bf
       -0.14819981157779694 -0.48455265164375305
000780 00 00 00 40 87 00 e3 3f 00 00 00 a0 5a f1 aa 3f
       0.593814492225647 0.052622634917497635
000790 00 00 00 80 fb 63 af 3f 00 00 00 60 66 1c a4 3f
       0.061309680342674255 0.03927917405962944
0007a0 00 00 00 00 de 70 dc 3f 00 00 00 00 c6 35 e8 3f
       0.44438886642456055 0.7565641403198242
0007b0 00 00 00 40 d0 a2 e4 3f 00 00 00 80 c7 8a eb 3f
       0.6448746919631958 0.8606908321380615
0007c0 00 00 00 e0 c0 fc d4 3f 00 00 00 80 ad b1 f0 3f
       0.3279268443584442 1.0433783531188965
0007d0 00 00 00 80 1a 99 c8 bf 00 00 00 20 8e 9e d9 bf
       -0.1921723484992981 -0.4003024399280548
0007e0 00 00 00 40 9c 5c e5 bf 00 00 00 00 98 3b f2 3f
       -0.6675549745559692 1.1395492553710938
0007f0 00 00 00 20 be f9 d9 3f 00 00 00 80 09 ab dd 3f
       0.4058680832386017 0.46356427669525146
